2025-01-07 03:05:38,038 - INFO - Script started.
2025-01-07 03:05:40,997 - INFO - Model architecture defined and compiled.
2025-01-07 03:05:40,997 - INFO - Model: "sequential"
2025-01-07 03:05:40,997 - INFO - _________________________________________________________________
2025-01-07 03:05:40,997 - INFO -  Layer (type)                Output Shape              Param #   
2025-01-07 03:05:40,997 - INFO - =================================================================
2025-01-07 03:05:40,997 - INFO -  conv2d (Conv2D)             (None, 96, 96, 64)        1792      
2025-01-07 03:05:40,999 - INFO -                                                                  
2025-01-07 03:05:40,999 - INFO -  max_pooling2d (MaxPooling2D  (None, 48, 48, 64)       0         
2025-01-07 03:05:40,999 - INFO -  )                                                               
2025-01-07 03:05:40,999 - INFO -                                                                  
2025-01-07 03:05:40,999 - INFO -  dropout (Dropout)           (None, 48, 48, 64)        0         
2025-01-07 03:05:40,999 - INFO -                                                                  
2025-01-07 03:05:40,999 - INFO -  conv2d_1 (Conv2D)           (None, 48, 48, 128)       73856     
2025-01-07 03:05:40,999 - INFO -                                                                  
2025-01-07 03:05:40,999 - INFO -  max_pooling2d_1 (MaxPooling  (None, 24, 24, 128)      0         
2025-01-07 03:05:40,999 - INFO -  2D)                                                             
2025-01-07 03:05:40,999 - INFO -                                                                  
2025-01-07 03:05:40,999 - INFO -  dropout_1 (Dropout)         (None, 24, 24, 128)       0         
2025-01-07 03:05:40,999 - INFO -                                                                  
2025-01-07 03:05:40,999 - INFO -  conv2d_2 (Conv2D)           (None, 24, 24, 256)       131328    
2025-01-07 03:05:40,999 - INFO -                                                                  
2025-01-07 03:05:40,999 - INFO -  max_pooling2d_2 (MaxPooling  (None, 12, 12, 256)      0         
2025-01-07 03:05:40,999 - INFO -  2D)                                                             
2025-01-07 03:05:40,999 - INFO -                                                                  
2025-01-07 03:05:40,999 - INFO -  dropout_2 (Dropout)         (None, 12, 12, 256)       0         
2025-01-07 03:05:40,999 - INFO -                                                                  
2025-01-07 03:05:40,999 - INFO -  conv2d_3 (Conv2D)           (None, 12, 12, 512)       524800    
2025-01-07 03:05:40,999 - INFO -                                                                  
2025-01-07 03:05:40,999 - INFO -  max_pooling2d_3 (MaxPooling  (None, 6, 6, 512)        0         
2025-01-07 03:05:40,999 - INFO -  2D)                                                             
2025-01-07 03:05:40,999 - INFO -                                                                  
2025-01-07 03:05:40,999 - INFO -  global_average_pooling2d (G  (None, 512)              0         
2025-01-07 03:05:40,999 - INFO -  lobalAveragePooling2D)                                          
2025-01-07 03:05:40,999 - INFO -                                                                  
2025-01-07 03:05:40,999 - INFO -  dropout_3 (Dropout)         (None, 512)               0         
2025-01-07 03:05:40,999 - INFO -                                                                  
2025-01-07 03:05:40,999 - INFO -  flatten (Flatten)           (None, 512)               0         
2025-01-07 03:05:40,999 - INFO -                                                                  
2025-01-07 03:05:41,000 - INFO -  dense (Dense)               (None, 512)               262656    
2025-01-07 03:05:41,000 - INFO -                                                                  
2025-01-07 03:05:41,000 - INFO -  dropout_4 (Dropout)         (None, 512)               0         
2025-01-07 03:05:41,000 - INFO -                                                                  
2025-01-07 03:05:41,000 - INFO -  dense_1 (Dense)             (None, 256)               131328    
2025-01-07 03:05:41,000 - INFO -                                                                  
2025-01-07 03:05:41,000 - INFO -  dropout_5 (Dropout)         (None, 256)               0         
2025-01-07 03:05:41,000 - INFO -                                                                  
2025-01-07 03:05:41,000 - INFO -  dense_2 (Dense)             (None, 128)               32896     
2025-01-07 03:05:41,000 - INFO -                                                                  
2025-01-07 03:05:41,000 - INFO -  dropout_6 (Dropout)         (None, 128)               0         
2025-01-07 03:05:41,000 - INFO -                                                                  
2025-01-07 03:05:41,000 - INFO -  dense_3 (Dense)             (None, 1)                 129       
2025-01-07 03:05:41,000 - INFO -                                                                  
2025-01-07 03:05:41,000 - INFO - =================================================================
2025-01-07 03:05:41,000 - INFO - Total params: 1,158,785
2025-01-07 03:05:41,000 - INFO - Trainable params: 1,158,785
2025-01-07 03:05:41,000 - INFO - Non-trainable params: 0
2025-01-07 03:05:41,000 - INFO - _________________________________________________________________
…
